…
    return self.call_event("on_epoch_end", args, state, control)
           ^^^^^^^^^^^^^^^^^^^^^^^^^^^^^^^^^^^^^^^^^^^^^^^^^^^^^
  File "C:\Users\kenta\AppData\Local\Programs\Python\Python312\Lib\site-packages\transformers\trainer_callback.py", line 518, in call_event
    result = getattr(callback, event)(
             ^^^^^^^^^^^^^^^^^^^^^^^^^
  File "C:\Users\kenta\Desktop\NLP\fp-dataset-artifcats-main_2\run.py", line 30, in on_epoch_end

KeyError: 'eval_predictions'




odel: ElectraForSequenceClassification(
  (electra): ElectraModel(
    (embeddings): ElectraEmbeddings(
      (word_embeddings): Embedding(30522, 128, padding_idx=0)
      (position_embeddings): Embedding(512, 128)
      (token_type_embeddings): Embedding(2, 128)
      (LayerNorm): LayerNorm((128,), eps=1e-12, elementwise_affine=True)
      (dropout): Dropout(p=0.1, inplace=False)
    )
    (embeddings_project): Linear(in_features=128, out_features=256, bias=True)
    (encoder): ElectraEncoder(
      (layer): ModuleList(
        (0-11): 12 x ElectraLayer(
          (attention): ElectraAttention(
            (self): ElectraSelfAttention(
              (query): Linear(in_features=256, out_features=256, bias=True)
              (key): Linear(in_features=256, out_features=256, bias=True)
              (value): Linear(in_features=256, out_features=256, bias=True)
              (dropout): Dropout(p=0.1, inplace=False)
            )
            (output): ElectraSelfOutput(
              (dense): Linear(in_features=256, out_features=256, bias=True)
              (LayerNorm): LayerNorm((256,), eps=1e-12, elementwise_affine=True)
              (dropout): Dropout(p=0.1, inplace=False)
            )
          )
          (intermediate): ElectraIntermediate(
            (dense): Linear(in_features=256, out_features=1024, bias=True)
            (intermediate_act_fn): GELUActivation()
          )
          (output): ElectraOutput(
            (dense): Linear(in_features=1024, out_features=256, bias=True)
            (LayerNorm): LayerNorm((256,), eps=1e-12, elementwise_affine=True)
            (dropout): Dropout(p=0.1, inplace=False)
          )
        )
      )
    )
  )
  (classifier): ElectraClassificationHead(
    (dense): Linear(in_features=256, out_features=256, bias=True)
    (activation): GELUActivation()
    (dropout): Dropout(p=0.1, inplace=False)
    (out_proj): Linear(in_features=256, out_features=3, bias=True)
  )
)
processing_class: ElectraTokenizerFast(name_or_path='google/electra-small-discriminator', vocab_size=30522, model_max_length=512, is_fast=True, padding_side='right', truncation_side='right', special_tokens={'unk_token': '[UNK]', 'sep_token': '[SEP]', 'pad_token': '[PAD]', 'cls_token': '[CLS]', 'mask_token': '[MASK]'}, clean_up_tokenization_spaces=False),  added_tokens_decoder={
…
